accuracy_predictor_with_trends.pt (torch, 4887 bytes, 5 tensors)

model.0.weight f4 [32, 5]
00000000: 1691 17bf 249a 693e de32 4f3e 37a0 c1be
00000010: f682 313e 0a34 2dbe 944a 493e 00fd b8be
00000020: 2afa 49be dcf9 84be 2cb4 943e 2501 7cbc
00000030: 980f 30bc 7d1c 35be 5302 26be 1d19 89be
00000040: c7b2 84be 5885 58be 6c74 59be cd48 93be
00000050: b709 debe cc86 88be 4882 413e c620 cc3e
00000060: 582f b1be f6e9 abbe 9751 bb3d 87f6 db3e
00000070: ddd6 eebe ff2c 233f 6581 8bbe e0e6 4ebe
00000080: 788e d8bd 779b e3be 7c15 823e 9fd9 9d3d
00000090: 6d6c 5e3e 59b8 893e caa3 573d 09c1 aabd
000000a0: dc73 8bbd 34e2 453e 6997 d7be 00cc aeba
000000b0: e62e a2be 8717 dfbe 0a91 ba3e 34de a23d
000000c0: ebc4 f2be 0c34 eb3d c669 90be 5024 f63c
000000d0: 00e1 2e3b f094 f73d f56b a7be bb33 d4be
000000e0: 4201 a2be 3a2c ed3e 3801 77be 2298 e03e
000000f0: d421 1c3e 8bde 4a3e 73fb 433e 3be7 0dbe
00000100: 6b09 4c3e c45e 313e beb6 c43e 4d78 d5be
00000110: 516d 82be 0b80 01be 4afd 293e c48f 9dbe
00000120: ffdf 733e e733 44bd 54bc 2d3e 8987 2ebe
00000130: f8e2 87be cb26 bd3d fcbc 2a3e f686 6bbe
00000140: 4600 c3be b9c0 87be 25bf 93be c899 f43d
00000150: 603e 10bc 3808 0cbf 18e9 ef3e 7715 2ebe
00000160: 2857 b6be 7b32 ea3e 9735 7abd bc1e 913d
00000170: c1a8 b23e bcad 86bc ef96 0ebd 2646 9cbe
00000180: d3ac c5be 8270 cabe 3800 d3be c179 bfbe
00000190: 0361 08bf 6db5 8abd 3f1e 463e 1b26 84be
000001a0: 0a1f 573e 72cd 2dbe 4048 dbbc 6661 843e
000001b0: 1417 8d3e 4055 e6bc 72ed bcbe 7880 6a3e
000001c0: c412 9bbe 591d d5be 560d c03e 346a 9d3e
000001d0: 9218 2fbe 1312 c23d 5df1 213c aeb5 f93e
000001e0: c1fd cb3e ca7c 15be ab6a 8c3e ae9b 83be
000001f0: 8b90 36bf 6062 6ebe 8055 f33d 2c2b 503e
00000200: 1014 ab3d 509b 443d e43a c43e 9ce3 89bd
00000210: 9848 aabe 30c4 b3bc e040 403d 516e a7be
00000220: c45c 613e 2c03 b1bd a110 ba3d 3b04 a83c
00000230: 6b7f 353d f42d 4d3e 98b8 d8bd c89e 77bd
00000240: 5edd ac3e 7570 793e 0186 adbe d96a f0be
00000250: fa6a 5abe 47ae 073f 2d31 ca3e 0193 f13d
00000260: ba5f 8d3e aab5 623d 780f 0fbd 7abc a23e
00000270: 3f9c 0abd 7d31 d63e a38d b8bd e392 e93d
-0.5920576 0.22812706 0.20234248 -0.37817547 0.17335114 -0.16914383 0.19657356 -0.36130524
-0.19724336 -0.25971878 0.2904371 -0.015381132 -0.010745905 -0.17686649 -0.16211824 -0.26776972
-0.25917646 -0.21144617 -0.21235818 -0.2876648 -0.43366787 -0.26665342 0.18897355 0.39868754
-0.34606433 -0.33576936 0.091464214 0.42961523 -0.46648303 0.63740534 -0.27247158 -0.2020526
-0.10574049 -0.44454548 0.25407016 0.077075236 0.21721049 0.2689846 0.052646436 -0.083376
-0.06809208 0.19324571 -0.42107704 -0.0013335943 -0.31676406 -0.43572637 0.3643878 0.07952538
-0.4741586 0.114845365 -0.282057 0.030046612 0.0026684403 0.120889544 -0.32699552 -0.41445717
-0.31641585 0.46322805 -0.24121559 0.43866068 0.1524728 0.19811456 0.19138889 -0.13857739
0.19925468 0.17321306 0.3842067 -0.41693345 -0.25474027 -0.12646501 0.16600528 -0.30773747
0.23815916 -0.04790106 0.16966373 -0.1704389 -0.2654035 0.09235915 0.16673654 -0.23000702
-0.38086146 -0.26514223 -0.2885677 0.11943394 -0.008803934 -0.5470004 0.46857524 -0.17000376
-0.3561337 0.4574164 -0.061086264 0.0708594 0.34894374 -0.016440265 -0.03481191 -0.3052227
-0.38608417 -0.39538962 -0.41211104 -0.37397578 -0.5327303 -0.067728855 0.19347475 -0.25810322
0.21007934 -0.16972902 -0.02676785 0.2585556 0.2755667 -0.028116822 -0.36899906 0.2290057
-0.30287755 -0.41623953 0.37510175 0.3074509 -0.17099217 0.09476104 0.009884206 0.48771423
0.39842036 -0.14598384 0.2742513 -0.25704712 -0.71314305 -0.23279715 0.11881542 0.20328969
0.08353436 0.04799968 0.3832618 -0.06732866 -0.3325851 -0.021944135 0.04693687 -0.32701352
0.22008044 -0.08643183 0.09085203 0.02050983 0.04431097 0.20037061 -0.105820835 -0.06045416
0.3376264 0.24359305 -0.338913 -0.46956518 -0.21329871 0.530003 0.39490643 0.11795617
0.27612096 0.05534903 -0.03492686 0.3178442 -0.033840414 0.41834632 -0.0901139 0.114049695

model.0.bias f4 [32]
00000000: e9ca f8bd b0e8 113e 7448 4a3e a216 a0be
00000010: 0303 61be 7bc7 803e 98a6 353e a449 413e
00000020: e413 9dbe 18d1 f3bd 09f2 c7be 7b3d d53e
00000030: de62 06bf bf0f b6bd 1e0f d43d 30e0 bd3e
00000040: 8a2e ddbe eb56 2d3e b640 adbe d5b5 c2be
00000050: de64 ca3d bb25 aebe 4819 ff3d eeed d8be
00000060: bf93 7cbc 4b63 c6be 51e1 b6be 7035 b9bd
00000070: 27a0 40be c735 fcbd d154 f73e ec61 3d3e
-0.12148077 0.1424892 0.19754201 -0.31267267 -0.21973805 0.25152192 0.17739332 0.18875748
-0.30679238 -0.11905116 -0.39051846 0.41648468 -0.5249461 -0.08889722 0.10354446 0.37085104
-0.4319957 0.16927688 -0.33838433 -0.38029352 0.0988252 -0.3401316 0.12455994 -0.42369026
-0.015416085 -0.3874763 -0.35718778 -0.090433955 -0.18811093 -0.12314945 0.48306897 0.18494385

model.2.weight f4 [16, 32]
00000000: f792 dbbd 3b2b 323e 36ef e1bd 00b9 923a
00000010: 7270 ea3d 8342 21be 4b5d 07be 4be1 a8bd
00000020: 40d7 69bb fcef afbd 50ac 323d 7e79 993d
00000030: e061 7c3d 66c9 8a3d c0f9 213d b6e5 ce3d
00000040: acc3 e7bd 944a f4bd f79b edbd 509c 4bbc
00000050: dcd3 e9bd d0ec a63c 5d53 11be a094 023c
00000060: d63c 31be 304a 44bd 79d5 073e 2c91 37bd
00000070: 9c91 ecbd dfa4 b8bd b8d3 33bd 2c76 883d
00000080: 46c5 8fbe 7848 f6bc 32bb d0bd 28d6 1a3d
00000090: 8439 433d be68 ccbe 03ef 0abe d4f6 123e
000000a0: e8f6 19be 8060 80bd d6c7 843d 4ff0 983c
000000b0: 586f de3d ec59 2b3e 9e4b 143e 8e30 b4bd
000000c0: 9415 153d ecf4 89bd 70c3 72bd bf23 c1bd
000000d0: 9b38 92bb 6028 8cbb 9005 28be 61f1 81bd
000000e0: 5830 edbb 6d84 c4bd c650 33be b67b b6bc
000000f0: cf10 ce3c e4ac ccbc 06cd 4e3e 9fdd 853d
00000100: c08b d53d d678 993d 3959 3ebe bde9 033e
00000110: 88cc 023d 762c 2ebe 1e13 9fbd 0bb1 89bd
00000120: b723 203e 2ae2 59bb 7d9c cdbd e582 dabd
00000130: e48e 8a3d f095 213d 6433 b2bd ab7e b8bc
00000140: b818 013d 42a8 9c3d f91f d6bd a4cc 2cbd
00000150: 2566 333d f064 b8bc 3280 9f3d 1e97 843d
00000160: b03f 8abd cead b53d a005 8fbc 70e5 be3d
00000170: 4a99 f2bd 10f9 6b3d 76db edbd 7bbb a3bc
00000180: b65e 32bd 3752 163e 18b7 49be acb8 38bd
00000190: f0c6 993c 7243 92bb 1163 1f3e 730b 083e
000001a0: d87d 97bc 709f 4abd f067 82bc ee6d 2ebe
000001b0: da79 dd3a e432 2cbd 9e32 a03c 9c47 2abe
000001c0: 6097 a0bd eaa1 4fbe 65bb 0ebe 3ef6 ac3d
000001d0: e150 13bd 60e6 8dbc 0b4f 1abe 6e40 b5bd
000001e0: da1c d5be 6ce1 213d 8bd0 073e 0c2d 08be
000001f0: 9496 baba eb0f 10be 676b 473d 6202 d73c
00000200: b4b4 07be 26b0 b93d 25a7 b0bd a660 dc3d
00000210: b869 dc3c 8dfe 33be f6c3 af3d c4cc acbd
00000220: 23fd 1ebe 32b5 8bbd ba7b c03d 982c 533d
00000230: a026 1cbd 1ab9 92bd c21a f13d 91dc 253e
00000240: acb2 20be 20c1 86bc 22bb f43d 42d7 25be
00000250: 4fc4 263e 68a2 d4bc bda5 8bbd a07d 743d
00000260: 9bfc 1d3e 8407 3a3d 2e36 e13d f199 0d3e
00000270: f497 0b3d 22ee b6bd b46b 893d bdd4 2cbe
00000280: 4bc4 c9bd a414 34bd 97d5 09be 2828 4c3d
00000290: c02c 61bc 8a3c 1dbe f0b9 8e3c 5874 04be
000002a0: 1207 2ebe 7f24 d4bd e09a 073d 6db6 debd
000002b0: 5ef3 d4bd dcbb 44bd 795a 093e 826c b23d
000002c0: c0a4 56bc 2cd4 0bbe b279 c9bd 72b6 f93d
000002d0: aabf d83d 283d 61bd 4f22 e3bd 4093 c53c
000002e0: cae7 cebd b24d 91bd 763d 61bd 42c4 7ebd
000002f0: 8cf5 1bbd 80fb 12be e013 4dbd cac5 afbd
00000300: de29 39be e20e f33d 3fa5 f6bd 24f6 dfbd
00000310: debb 96bd eb75 5bbe e684 22be 04e0 263e
00000320: f0fe 243d 0cd1 9dbe 52b2 ab3d 0bce 58be
00000330: 1a2c 58bc 0c08 503d 8a33 18be b403 b939
00000340: 7c88 873d 90ff 7bbe 38e8 27be f947 0b3e
00000350: b1d5 5dbe 10c4 ffbc 6445 a9bd 3b92 9f3d
00000360: 4cd8 7abd e997 d4bd 5061 8a3c 399b 25be
00000370: c5c3 16be b402 2e3e ee9f 183e 0ede 943d
00000380: 2c9d 24be 6b0f 28be 00c5 c23c 7a30 f03d
00000390: 0fae d0bd 541b 903d 0887 3bbd be83 d13d
000003a0: 582e ac3c 0610 e83d d0f3 b93c b8c0 c8bd
000003b0: 7e56 0fbe 44be 7c3d 2490 5abd 6e1f ef3d
000003c0: f6d3 6bbd 1007 c7bd 2a8b eabd 255b 033e
000003d0: c241 2dbe 27f2 d6bd 40ae 683d e0de 34bd
000003e0: 016e 293e ea5a 6ebd 796e 06be a2c0 22be
000003f0: 9491 51bd 5a77 a23d e056 803b 291e 30be
-0.10721391 0.17399304 -0.11031954 0.001119405 0.114472285 -0.15748028 -0.13219182 -0.08246096
-0.0035681278 -0.08590695 0.04362136 0.07493876 0.06161678 0.06776695 0.03954482 0.10102408
-0.11316618 -0.11928287 -0.116020136 -0.0124274045 -0.11417362 0.020376593 -0.14191957 0.007970005
-0.17308363 -0.047922313 0.13265027 -0.04481618 -0.1155121 -0.09015822 -0.043903083 0.066631645
-0.28080195 -0.030063853 -0.10191955 0.03780189 0.047662273 -0.39923662 -0.13567738 0.1435197
-0.15035594 -0.06268406 0.06483428 0.018669276 0.10861081 0.16733521 0.1448197 -0.087983236
0.03639753 -0.06736168 -0.059268415 -0.09430646 -0.0044623143 -0.004277274 -0.16408372 -0.063448675
-0.007238429 -0.09595571 -0.17511281 -0.022275787 0.0251545 -0.024984784 0.20195398 0.065364115
0.10427046 0.07493751 -0.18588723 0.12882133 0.031933337 -0.17009148 -0.07767318 -0.067232214
0.15638624 -0.0033246377 -0.100396134 -0.106694974 0.067655355 0.039449632 -0.08701208 -0.022521337
0.031517714 0.0764928 -0.10455317 -0.042187348 0.043798584 -0.022509068 0.07788123 0.06474136
-0.06750429 0.08871041 -0.017458737 0.093211055 -0.11845644 0.05761057 -0.116141245 -0.019986859
-0.043547355 0.146798 -0.19698751 -0.04509799 0.018771619 -0.0044636065 0.15565135 0.13285618
-0.018492624 -0.049468458 -0.015918702 -0.17034122 0.0016897277 -0.04204072 0.019555386 -0.1662888
-0.078413725 -0.20276609 -0.13938673 0.084454045 -0.035965804 -0.017321765 -0.15069215 -0.088501796
-0.41623574 0.03952162 0.13263147 -0.13298434 -0.001423555 -0.14068572 0.04868641 0.026246253
-0.13252527 0.09066801 -0.0862563 0.10760622 0.02690588 -0.17577572 0.085822985 -0.084374934
-0.15526251 -0.0682167 0.09398599 0.0515562 -0.038122773 -0.071642116 0.11772682 0.1619742
-0.15693158 -0.016449511 0.11949755 -0.16195396 0.16285823 -0.025956348 -0.068187214 0.059690118
0.15428393 0.045417324 0.10996662 0.13828255 0.03408046 -0.08932139 0.06709996 -0.16878028
-0.09851893 -0.043964997 -0.13460384 0.049842983 -0.013743579 -0.15355125 0.017422646 -0.12935007
-0.16994885 -0.103585236 0.033106685 -0.10874639 -0.10397981 -0.04803072 0.13413419 0.087121025
-0.013100803 -0.13655156 -0.09837665 0.12193002 0.10583432 -0.054989964 -0.11090528 0.024118066
-0.10102804 -0.07094897 -0.054990254 -0.062198885 -0.03807597 -0.14353752 -0.050067782 -0.08582647
-0.18082377 0.11868073 -0.12043237 -0.109356195 -0.073600516 -0.21431701 -0.15871009 0.16296393
0.04028219 -0.30823553 0.08383621 -0.21172349 -0.013194108 0.050788924 -0.1486341 0.0003528871
0.06617829 -0.24609208 -0.16397178 0.13601674 -0.21663548 -0.03122142 -0.08265188 0.07791563
-0.061241433 -0.10380537 0.016892105 -0.16172494 -0.14723118 0.16993219 0.14904758 0.07268916
-0.16075581 -0.16412131 0.023775578 0.11727996 -0.10189449 0.070364624 -0.045783073 0.10230206
0.021018192 0.11331181 0.022699267 -0.09802383 -0.13997838 0.06170489 -0.05336012 0.116759166
-0.05757519 -0.09718144 -0.11452325 0.12827738 -0.16919616 -0.10495406 0.056806803 -0.044157863
0.1654587 -0.05819217 -0.1312808 -0.15893796 -0.051164225 0.07932921 0.0039166063 -0.17199005

model.2.bias f4 [16]
00000000: 3857 cc3c 8649 2e3d 9ef7 2abe 056a 003e
00000010: 37ae b5bd a024 583c 0566 183e 041d febd
00000020: 8fef 24be 669b dbbd c0f1 323c ed5f 003c
00000030: b4a8 1a3e f93b cebd 2fc3 313e 3504 ed3b
0.024943933 0.042550586 -0.16696021 0.12540443 -0.088711195 0.013192326 0.14882667 -0.12407878
-0.1610701 -0.10722999 0.0109218955 0.0078353705 0.15103418 -0.100700326 0.17359613 0.0072331675

model.4.weight f4 [1, 16]
00000000: bea3 68be c835 623e 8f60 fd3d 368b 743d
00000010: fea9 543e 1cc6 9fbd d520 903e 80f9 37bb
00000020: 0b03 813c dc36 2fbe 0821 b1bd d921 fc3d
00000030: d774 773e 104b 52be a806 873d a657 dfbc
-0.22718713 0.22090828 0.12371933 0.059703074 0.20767972 -0.07801458 0.2815005 -0.0028072298
0.015748521 -0.17110771 -0.08648878 0.123111434 0.24165665 -0.20536447 0.065930665 -0.027263474
