accuracy_predictor.pt (torch, 4887 bytes, 5 tensors)

model.0.weight f4 [32, 5]
-0.43411157 0.36241204 -0.060139954 0.41821814 0.031483263 0.031863615 0.36564463 -0.20538145
-0.10979275 0.06766447 -0.37064022 0.04834172 -0.06806344 -0.14842597 0.39739144 -0.21854343
-0.16330744 0.20635022 -0.48675048 -0.22086102 -0.40211546 -0.38848448 -0.10719168 -0.3942149
-0.22309494 -0.16068289 0.40161288 -0.43427268 0.03743425 0.34579664 0.29363638 -0.117790595
-0.536628 -0.4560249 -0.28392503 -0.24596153 -0.43925166 0.21711034 0.08220762 -0.44343653
0.43834805 -0.042960566 -0.09529651 0.13504574 -0.734483 0.33326334 0.027491651 0.35146442
0.5595725 -0.55790424 0.016331164 0.18816736 0.34511903 0.18235062 -0.29863003 -0.5368955
0.5717097 0.12893464 -0.44895568 1.2065767 -0.2349123 0.06279528 -0.04266578 -0.05425611
0.10524547 0.34039345 0.18709444 0.2019886 -0.11023599 -0.015733896 -0.28378797 -0.40856242
-0.3640169 0.059093177 -0.32232124 -0.28432497 0.008558601 0.044186592 -0.26018342 0.35108197
-0.2936476 -0.47308698 0.042816773 -0.144171 -0.40672275 0.0104722325 0.32327628 0.031198123
0.22806261 -0.7273723 -0.09255248 -0.063005686 -0.20044507 -0.28471527 0.30660993 -0.123909906
-0.16788451 0.22410572 0.064290985 -0.11562578 -0.024070254 -0.289633 -0.060961694 0.25513446
0.06175135 0.18473282 -0.39803407 0.05881565 0.06011503 -0.51996714 -0.25966084 -0.34560665
0.008913249 -0.29377955 0.4285068 -0.26620972 0.15080458 -0.22008725 -0.10481948 0.26491392
0.14536758 -0.13047074 0.01502643 -0.26876715 -0.5681847 0.42260358 0.058897447 0.08056736
0.26416603 -0.47864386 -0.038731217 0.20627761 -0.0688054 0.10800862 0.39972925 -0.34515616
-0.1856599 0.29235607 0.5189119 -0.20394856 -0.46443924 0.18889219 0.06931884 -0.2896819
0.17335261 0.30439332 -0.25589016 0.29859403 0.28958955 -0.17173299 -0.07993096 -0.31594175
-0.28164756 -0.33607942 -0.44114423 -0.2267262 -0.101762615 -0.29406884 0.32186085 -0.4380966
00000000: df43 debe 128e b93e 5055 76bd b020 d63e
00000010: 98f4 003d 6c83 023d c635 bb3e 844f 52be
00000020: 05db e0bd ab93 8a3d 8ec4 bdbe f801 463d
00000030: d864 8bbd fafc 17be e476 cb3e d9c9 5fbe
00000040: 113a 27be 794d 533e 5c37 f9be 6429 62be
00000050: 14e2 cdbe 70e7 c6be 5087 dbbd 89d6 c9be
00000060: 0073 64be 0e8a 24be 34a0 cd3e fd58 debe
00000070: a854 193d 420c b13e 8257 963e 323c f1bd
00000080: 7460 09bf 187c e9be 9f5e 91be 57dd 7bbe
00000090: 98e5 e0be 2c52 5e3e 785c a83d 1d0a e3be
000000a0: 286f e03e 6bf7 2fbd d12a c3bd 6e49 0a3e
000000b0: 1407 3cbf 7ea1 aa3e 2c36 e13c 25f3 b33e
000000c0: 2540 0f3f d0d2 0ebf efc8 853c f2ae 403e
000000d0: 71b3 b03e 1fba 3a3e 09e6 98be fc71 09bf
000000e0: 915b 123f 7107 043e 85dd e5be 1b71 9a3f
000000f0: da8c 70be d09a 803d 50c2 2ebd a83b 5ebd
00000100: f08a d73d 0d48 ae3e af95 3f3e 19d6 4e3e
00000110: 68c3 e1bd 5fe4 80bc a84c 91be 182f d1be
00000120: 6c60 babe b00b 723d 4a07 a5be 0b93 91be
00000130: 6039 0c3c 00fd 343d c336 85be 04c1 b33e
00000140: fa58 96be 7538 f2be a460 2f3d 90a1 13be
00000150: f73d d0be ba93 2b3c 7884 a53e 3593 ff3c
00000160: 3f89 693e 1235 3abf 288c bdbd 2009 81bd
00000170: 7941 4dbe 33c6 91be fafb 9c3e 7ac4 fdbd
00000180: ebe9 2bbe f87b 653e feaa 833d 35cd ecbd
00000190: fb2e c5bc c74a 94be f8b2 79bd fca0 823e
000001a0: fcee 7c3d 9a2a 3d3e 1fcb cbbe aee8 703d
000001b0: 2d3b 763d 911c 05bf 44f2 84be 5bf3 b0be
000001c0: e008 123c 466a 96be 3e65 db3e a44c 88be
000001d0: 846c 1a3e 8d5e 61be 98ab d6bd cca2 873e
000001e0: 3ddb 143e 1f9a 05be 6a31 763c d99b 89be
000001f0: 8d74 11bf 7f5f d83e 733e 713d 8000 a53d
00000200: c540 873e cf10 f5be a0a4 1ebd 703a 533e
00000210: d8e9 8cbd a033 dd3d 50a9 cc3e 4fb8 b0be
00000220: a11d 3ebe b2af 953e 69d7 043f e4d7 50be
00000230: fbca edbe f46c 413e 09f7 8d3d 3051 94be
00000240: 5983 313e 71d9 9b3e 0904 83be 51e1 983e
00000250: 1545 943e c6da 2fbe d8b2 a3bd 1ec3 a1be
00000260: 1c34 90be 9a12 acbe a8dd e1be ea2a 68be
00000270: eb68 d0bd 3190 96be f2ca a43e 334e e0be

model.0.bias f4 [32]
-0.43988904 0.42460072 -0.12332183 0.06531011 0.3142724 -0.097599745 -0.021084348 0.17017943
0.14549775 -0.1198945 0.25312144 0.13670853 -0.2989897 -0.03385969 -0.3518573 0.034267366
0.24323004 0.06583773 -0.3279311 -0.060314216 0.33869416 0.37594447 -0.3854602 -0.28351372
0.24662189 -0.08621514 -0.3318019 0.47904983 -0.20088233 -0.47966453 0.18739992 0.055144623
00000000: 2339 e1be 4465 d93e 2890 fcbd 4fc1 853d
00000010: 50e8 a03e 60e2 c7bd 15b9 acbc 8443 2e3e
00000020: 5dfd 143e 3f8b f5bd 2299 813e 52fd 0b3e
00000030: 2e15 99be 75b0 0abd a426 b4be f05b 0c3d
00000040: 4c11 793e efd5 863d 96e6 a7be 0a0c 77bd
00000050: 5269 ad3e cb7b c03e 0a5b c5be b628 91be
00000060: 738a 7c3e 9091 b0bd f0e1 a9be 0546 f53e
00000070: 19b4 4dbe 9796 f5be c4e5 3f3e 54df 613d

model.2.weight f4 [16, 32]
0.123670414 0.0085807 0.17442082 -0.059706844 -0.16689053 0.09279357 -0.07718995 -0.12788165
0.11553423 -0.12588245 -0.14549908 -0.042338192 -0.03217809 -0.10848487 -0.12771727 0.025866047
0.13810058 -0.024254188 -0.06986213 -0.03168328 0.044992432 0.1534016 -0.121622086 -0.16802391
0.08098064 0.030441359 -0.032176435 0.003526345 -0.117671914 -0.00056003034 -0.11530191 -0.0039025396
-0.12153975 -0.16008872 -0.09937028 -0.17522483 0.10787414 0.08966391 0.025544511 -0.021062449
-0.06608067 -0.05549765 0.035212412 -0.22381882 0.13613246 -0.06897599 0.021392897 -0.0788977
-0.06742149 -0.09185889 -0.04650055 0.045987293 -0.23636079 -0.114302844 0.007819921 0.17666028
-0.09253099 0.05971583 0.16127507 0.023388067 0.14261563 0.029084314 -0.022430345 -0.1111065
-0.01990965 0.05533135 -0.11424708 0.17205702 0.11544286 -0.10034802 -0.076660775 0.105108514
0.10916667 -0.057527497 -0.0028658658 0.027014881 -0.08964681 -0.062440574 0.08940877 -0.12647091
0.03746827 -0.072497025 -0.13071088 0.12492679 0.098690644 -0.15007792 0.013506889 -0.005370438
-0.024969473 -0.1005466 -0.015626222 0.0736752 -0.107190266 -0.12392463 -0.10333935 0.047604546
0.037494615 -0.113986276 0.03822595 0.17019568 -0.10780222 -0.04825802 0.06544024 0.025794312
-0.023231938 -0.1099728 0.09636743 -0.050509557 0.122203305 0.053708702 -0.12101466 0.15596335
0.14344223 -0.03643097 -0.11086088 -0.051076412 0.07692464 0.05153033 -0.090925105 0.026021674
-0.17369157 0.09322016 -0.09792799 -0.072877295 0.028588101 -0.010375813 -0.017173856 0.066283
0.102240846 -0.15051058 0.080805585 0.12422098 -0.15360436 -0.11064694 -0.1020654 -0.094746575
0.02486226 -0.0037977844 -0.14846408 -0.04020959 0.12769057 -0.16765863 -0.04851003 -0.078360304
0.022529319 -0.08351605 -0.12920573 -0.088701606 -0.12490784 0.031829745 -0.15349576 -0.1329649
-0.1517646 -0.055322036 0.034800425 -0.14101592 0.05289069 0.16112728 0.07955055 -0.16545075
0.123302504 0.15957682 0.14206682 -0.052955426 -0.06324151 -0.079337224 0.024462238 -0.022170141
-0.068220615 -0.1411705 -0.047610387 -0.07864775 0.16156389 0.08883606 -0.03898941 0.12589677
0.15007465 0.162264 0.17027073 -0.158939 0.006379813 0.07799579 0.026772633 -0.038356036
0.0015596598 -0.08198603 0.045450315 0.055178776 0.0800678 -0.07487853 -0.098099 -0.07622858
0.00029808283 -0.06699654 -0.054528117 -0.022058602 0.106572464 -0.004144609 -0.12032116 -0.09829589
0.046081953 -0.23332998 -0.0030755915 -0.08230866 0.13660915 0.08813594 0.03189127 -0.14280418
0.040671714 0.02675729 -0.14853343 0.06825036 -0.15607268 0.020526545 -0.019674212 -0.11615808
-0.10881945 -0.16189413 0.12344633 0.0134028075 0.0104664005 -0.17059897 0.07176192 -0.022160819
-0.02322331 -0.12713465 0.012128323 -0.16772304 0.032276586 -0.0545836 0.00995864 -0.11600363
0.011464223 -0.08495144 -0.114012495 0.1114033 0.028066412 0.0022019 0.10331865 -0.1529364
0.013654932 -0.114832565 0.045100063 -0.011740223 -0.1156739 -0.06050452 -0.046793982 0.14470549
0.13253559 0.03649831 -0.10572944 -0.0069454163 -0.096868694 0.063370004 0.058814347 -0.033608407
00000000: ea46 fd3d 1096 0c3c 5f9b 323e 2a8f 74bd
00000010: 5ae5 2abe 8e0a be3d c415 9ebd 68f3 02be
00000020: 369d ec3d 54e7 00be b6fd 14be d06a 2dbd
00000030: 2ccd 03bd 512d debd 51c8 02be 08e5 d33c
00000040: 3d6a 0d3e b8b0 c6bc e013 8fbd 54c6 01bd
00000050: fc49 383d 4f15 1d3e 0015 f9bd 760e 2cbe
00000060: 2ed9 a53d 2860 f93c 70cb 03bd 401a 673b
00000070: f9fd f0bd 00cf 12ba 6823 ecbd c0c1 7fbb
00000080: d5e9 f8bd 4cee 23be a582 cbbd 236e 33be
00000090: 1eed dc3d b6a1 b73d b942 d13c 288b acbc
000000a0: 4d55 87bd 8151 63bd e43a 103d c330 65be
000000b0: 4f66 0b3e 4943 8dbd 2840 af3c 1e95 a1bd
000000c0: 4714 8abd 8420 bcbd 5c77 3ebd 2c5d 3c3d
000000d0: 9008 72be 9c17 eabd 201f 003c 6fe6 343e
000000e0: e380 bdbd 9698 743d 4b25 253e 5598 bf3c
000000f0: d509 123e 3a42 ee3c d8bf b7bc ce8b e3bd
00000100: 9019 a3bc 20a3 623d 60fa e9bd b72f 303e
00000110: 4e6d ec3d 4383 cdbd 5300 9dbd 2243 d73d
00000120: c692 df3d f4a1 6bbd 40d1 3bbb 504e dd3c
00000130: bf98 b7bd b0c1 7fbd f21b b73d 9781 01be
00000140: 5478 193d 5279 94bd 13d9 05be 9ed9 ff3d
00000150: 521e ca3d 07ae 19be 004c 5d3c 80fa afbb
00000160: c88c ccbc 60eb cdbd 9002 80bc 06e3 963d
00000170: 9286 dbbd 32cc fdbd 95a3 d3bd fcfc 423d
00000180: f493 193d a371 e9bd d092 1c3d c747 2e3e
00000190: 69c7 dcbd 34aa 45bd 8805 863d 984e d33c
000001a0: e850 bebc 6b39 e1bd 4a5c c53d 1ce3 4ebd
000001b0: ba45 fa3d a8fd 5b3d 89d6 f7bd dbb4 1f3e
000001c0: 85e2 123e a438 15bd 070b e3bd 8035 51bd
000001d0: aa8a 9d3d 7811 533d f136 babd 682b d53c
000001e0: 34dc 31be 36ea be3d 788e c8bd b140 95bd
000001f0: 9831 ea3c 50ff 29bc 30b0 8cbc 62bf 873d
00000200: a663 d13d 721f 1abe 667d a53d 9267 fe3d
00000210: 764a 1dbe dd9a e2bd aa07 d1bd 7e0a c2bd
00000220: f0ab cb3c 40e4 78bb f806 18be d0b2 24bd
00000230: 51c1 023e b4ae 2bbe 74b2 46bd 5e7b a0bd
00000240: 688f b83c 760a abbd 824e 04be 30a9 b5bd
00000250: aecf ffbd e85f 023d fe2d 1dbe f327 08be
00000260: 2e68 1bbe 5c99 62bd e48a 0e3d 7a66 10be
00000270: e8a3 583d 8dfe 243e 66eb a23d ec6b 29be
00000280: 0686 fc3d 1b68 233e f779 113e cae7 58bd
00000290: c484 81bd 8e7b a2bd 0865 c83c 289e b5bc
000002a0: 40b7 8bbd 008f 10be 1c03 43bd 1212 a1bd
000002b0: 0171 253e aeef b53d 5cb3 1fbd 15eb 003e
000002c0: 2bad 193e 8928 263e 735b 2e3e e8c0 22be
000002d0: c00d d13b 42bc 9f3d 4852 db3c 381b 1dbd
000002e0: 806d cc3a 4be8 a7bd 1c2a 3a3d 2403 623d
000002f0: 96fa a33d ea59 99bd 21e8 c8bd bb1d 9cbd
00000300: 0048 9c39 7b35 89bd e058 5fbd 3eb4 b4bc
00000310: aa42 da3d 80cf 87bb f16a f6bd 5b4f c9bd
00000320: 6ec0 3c3d 0eee 6ebe dd8f 49bb 7191 a8bd
00000330: 45e3 0b3e 9e80 b43d 6ca0 023d 423b 12be
00000340: 6297 263d 1b32 db3c 2619 18be d8c6 8b3d
00000350: 84d1 1fbe 4927 a83c d02b a1bc 4ae4 edbd
00000360: bbdc debd 93c7 25be 6ed1 fc3d 7397 5b3c
00000370: 447b 2b3c 7fb1 2ebe eaf7 923d 9b8a b5bc
00000380: d03e bebc 962f 02be e0b5 463c 97bf 2bbe
00000390: 7434 043d 0e93 5fbd 9029 233c 5093 edbd
000003a0: 70d4 3b3c 05fb adbd 627f e9bd 6a27 e43d
000003b0: 88eb e53c c04d 103b ba98 d33d 5c9b 1cbe
000003c0: f0b8 5f3c 562d ebbd d8ba 383d 105a 40bc
000003d0: 70e6 ecbd 96d3 77bd 0cab 3fbd ad2d 143e
000003e0: 69b7 073e 407f 153d ad88 d8bd 6096 e3bb
000003f0: 1863 c6bd 22c8 813d 50e7 703d f8a8 09bd

model.2.bias f4 [16]
-0.07210335 -0.12782729 -0.14962249 -0.08086614 0.0939282 -0.14008775 -0.10920413 0.04563473
-0.076482534 0.13812216 0.037037697 -0.062590346 0.25128558 0.05871098 0.10614265 -0.16263232
00000000: ecaa 93bd 28e5 02be a336 19be 269d a5bd
00000010: 6e5d c03d 2a73 0fbe 6aa6 dfbd 7ceb 3a3d
00000020: e0a2 9cbd e56f 0d3e d7b4 173d 5e2f 80bd
00000030: 81a8 803e ed7a 703d 5161 d93d 1689 26be

model.4.weight f4 [1, 16]
-0.1635764 -0.1021965 -0.23853657 0.16780788 -0.08372533 0.1660752 0.06434382 0.22762972
0.07798228 0.27318725 -0.11054153 -0.23606107 0.17879793 0.23621221 0.08617846 -0.0926541
00000000: 9280 27be 664c d1bd ee42 74be d4d5 2b3e
00000010: 3078 abbd 9e0f 2a3e b1c6 833d c417 693e
00000020: 2cb5 9f3d 33df 8b3e 9963 e2bd feb9 71be
00000030: ce16 373e 9de1 713e 557e b03d 6fc1 bdbd
